…
                    input_shape=[3, 76, 76]
                    output_shape=[64]
                    backbone_net=ResNet18Conv(input_channel=3, input_coord_conv=False)
                    pool_net=SpatialSoftmax(num_kp=32, temperature=1.0, noise=0.0)
                  )
                  sharing_from=None
              )
              output_shape=[64]
          )
      )
      (noise_pred_net): ConditionalUnet1D(
        (mid_modules): ModuleList(
          (0-1): 2 x ConditionalResidualBlock1D(
            (blocks): ModuleList(
              (0-1): 2 x Conv1dBlock(
                (block): Sequential(
                  (0): Conv1d(1024, 1024, kernel_size=(5,), stride=(1,), padding=(2,))
                  (1): GroupNorm(8, 1024, eps=1e-05, affine=True)
                  (2): Mish()
                )
              )
            )
            (cond_encoder): Sequential(
              (0): Mish()
              (1): Linear(in_features=384, out_features=2048, bias=True)
              (2): Unflatten(dim=-1, unflattened_size=(-1, 1))
            )
            (residual_conv): Identity()
          )
        )
        (diffusion_step_encoder): Sequential(
          (0): SinusoidalPosEmb()
          (1): Linear(in_features=256, out_features=1024, bias=True)
          (2): Mish()
          (3): Linear(in_features=1024, out_features=256, bias=True)
        )
        (up_modules): ModuleList(
          (0): ModuleList(
            (0): ConditionalResidualBlock1D(
              (blocks): ModuleList(
                (0): Conv1dBlock(
                  (block): Sequential(
                    (0): Conv1d(2048, 512, kernel_size=(5,), stride=(1,), padding=(2,))
                    (1): GroupNorm(8, 512, eps=1e-05, affine=True)
                    (2): Mish()
                  )
                )
                (1): Conv1dBlock(
                  (block): Sequential(
                    (0): Conv1d(512, 512, kernel_size=(5,), stride=(1,), padding=(2,))
                    (1): GroupNorm(8, 512, eps=1e-05, affine=True)
                    (2): Mish()
                  )
                )
              )
              (cond_encoder): Sequential(
                (0): Mish()
                (1): Linear(in_features=384, out_features=1024, bias=True)
                (2): Unflatten(dim=-1, unflattened_size=(-1, 1))
              )
              (residual_conv): Conv1d(2048, 512, kernel_size=(1,), stride=(1,))
            )
            (1): ConditionalResidualBlock1D(
              (blocks): ModuleList(
                (0-1): 2 x Conv1dBlock(
                  (block): Sequential(
                    (0): Conv1d(512, 512, kernel_size=(5,), stride=(1,), padding=(2,))
                    (1): GroupNorm(8, 512, eps=1e-05, affine=True)
                    (2): Mish()
                  )
                )
              )
              (cond_encoder): Sequential(
                (0): Mish()
                (1): Linear(in_features=384, out_features=1024, bias=True)
                (2): Unflatten(dim=-1, unflattened_size=(-1, 1))
              )
              (residual_conv): Identity()
            )
            (2): Upsample1d(
              (conv): ConvTranspose1d(512, 512, kernel_size=(4,), stride=(2,), padding=(1,))
            )
          )
          (1): ModuleList(
            (0): ConditionalResidualBlock1D(
              (blocks): ModuleList(
                (0): Conv1dBlock(
                  (block): Sequential(
                    (0): Conv1d(1024, 256, kernel_size=(5,), stride=(1,), padding=(2,))
                    (1): GroupNorm(8, 256, eps=1e-05, affine=True)
                    (2): Mish()
                  )
                )
                (1): Conv1dBlock(
                  (block): Sequential(
                    (0): Conv1d(256, 256, kernel_size=(5,), stride=(1,), padding=(2,))
                    (1): GroupNorm(8, 256, eps=1e-05, affine=True)
                    (2): Mish()
                  )
                )
              )
              (cond_encoder): Sequential(
                (0): Mish()
                (1): Linear(in_features=384, out_features=512, bias=True)
                (2): Unflatten(dim=-1, unflattened_size=(-1, 1))
              )
              (residual_conv): Conv1d(1024, 256, kernel_size=(1,), stride=(1,))
            )
            (1): ConditionalResidualBlock1D(
              (blocks): ModuleList(
                (0-1): 2 x Conv1dBlock(
                  (block): Sequential(
                    (0): Conv1d(256, 256, kernel_size=(5,), stride=(1,), padding=(2,))
                    (1): GroupNorm(8, 256, eps=1e-05, affine=True)
                    (2): Mish()
                  )
                )
              )
              (cond_encoder): Sequential(
                (0): Mish()
                (1): Linear(in_features=384, out_features=512, bias=True)
                (2): Unflatten(dim=-1, unflattened_size=(-1, 1))
              )
              (residual_conv): Identity()
            )
            (2): Upsample1d(
              (conv): ConvTranspose1d(256, 256, kernel_size=(4,), stride=(2,), padding=(1,))
            )
          )
        )
        (down_modules): ModuleList(
          (0): ModuleList(
            (0): ConditionalResidualBlock1D(
              (blocks): ModuleList(
                (0): Conv1dBlock(
                  (block): Sequential(
                    (0): Conv1d(7, 256, kernel_size=(5,), stride=(1,), padding=(2,))
                    (1): GroupNorm(8, 256, eps=1e-05, affine=True)
                    (2): Mish()
                  )
                )
                (1): Conv1dBlock(
                  (block): Sequential(
                    (0): Conv1d(256, 256, kernel_size=(5,), stride=(1,), padding=(2,))
                    (1): GroupNorm(8, 256, eps=1e-05, affine=True)
                    (2): Mish()
                  )
                )
              )
              (cond_encoder): Sequential(
                (0): Mish()
                (1): Linear(in_features=384, out_features=512, bias=True)
                (2): Unflatten(dim=-1, unflattened_size=(-1, 1))
              )
              (residual_conv): Conv1d(7, 256, kernel_size=(1,), stride=(1,))
            )
            (1): ConditionalResidualBlock1D(
              (blocks): ModuleList(
                (0-1): 2 x Conv1dBlock(
                  (block): Sequential(
                    (0): Conv1d(256, 256, kernel_size=(5,), stride=(1,), padding=(2,))
                    (1): GroupNorm(8, 256, eps=1e-05, affine=True)
                    (2): Mish()
                  )
                )
              )
              (cond_encoder): Sequential(
                (0): Mish()
                (1): Linear(in_features=384, out_features=512, bias=True)
                (2): Unflatten(dim=-1, unflattened_size=(-1, 1))
              )
              (residual_conv): Identity()
            )
            (2): Downsample1d(
              (conv): Conv1d(256, 256, kernel_size=(3,), stride=(2,), padding=(1,))
            )
          )
          (1): ModuleList(
            (0): ConditionalResidualBlock1D(
              (blocks): ModuleList(
                (0): Conv1dBlock(
                  (block): Sequential(
                    (0): Conv1d(256, 512, kernel_size=(5,), stride=(1,), padding=(2,))
                    (1): GroupNorm(8, 512, eps=1e-05, affine=True)
                    (2): Mish()
                  )
                )
                (1): Conv1dBlock(
                  (block): Sequential(
                    (0): Conv1d(512, 512, kernel_size=(5,), stride=(1,), padding=(2,))
                    (1): GroupNorm(8, 512, eps=1e-05, affine=True)
                    (2): Mish()
                  )
                )
              )
              (cond_encoder): Sequential(
                (0): Mish()
                (1): Linear(in_features=384, out_features=1024, bias=True)
                (2): Unflatten(dim=-1, unflattened_size=(-1, 1))
              )
              (residual_conv): Conv1d(256, 512, kernel_size=(1,), stride=(1,))
            )
            (1): ConditionalResidualBlock1D(
              (blocks): ModuleList(
                (0-1): 2 x Conv1dBlock(
                  (block): Sequential(
                    (0): Conv1d(512, 512, kernel_size=(5,), stride=(1,), padding=(2,))
                    (1): GroupNorm(8, 512, eps=1e-05, affine=True)
                    (2): Mish()
                  )
                )
              )
              (cond_encoder): Sequential(
                (0): Mish()
                (1): Linear(in_features=384, out_features=1024, bias=True)
                (2): Unflatten(dim=-1, unflattened_size=(-1, 1))
              )
              (residual_conv): Identity()
            )
            (2): Downsample1d(
              (conv): Conv1d(512, 512, kernel_size=(3,), stride=(2,), padding=(1,))
            )
          )
          (2): ModuleList(
            (0): ConditionalResidualBlock1D(
              (blocks): ModuleList(
                (0): Conv1dBlock(
                  (block): Sequential(
                    (0): Conv1d(512, 1024, kernel_size=(5,), stride=(1,), padding=(2,))
                    (1): GroupNorm(8, 1024, eps=1e-05, affine=True)
                    (2): Mish()
                  )
                )
                (1): Conv1dBlock(
                  (block): Sequential(
                    (0): Conv1d(1024, 1024, kernel_size=(5,), stride=(1,), padding=(2,))
                    (1): GroupNorm(8, 1024, eps=1e-05, affine=True)
                    (2): Mish()
                  )
                )
              )
              (cond_encoder): Sequential(
                (0): Mish()
                (1): Linear(in_features=384, out_features=2048, bias=True)
                (2): Unflatten(dim=-1, unflattened_size=(-1, 1))
              )
              (residual_conv): Conv1d(512, 1024, kernel_size=(1,), stride=(1,))
            )
            (1): ConditionalResidualBlock1D(
              (blocks): ModuleList(
                (0-1): 2 x Conv1dBlock(
                  (block): Sequential(
                    (0): Conv1d(1024, 1024, kernel_size=(5,), stride=(1,), padding=(2,))
                    (1): GroupNorm(8, 1024, eps=1e-05, affine=True)
                    (2): Mish()
                  )
                )
              )
              (cond_encoder): Sequential(
                (0): Mish()
                (1): Linear(in_features=384, out_features=2048, bias=True)
                (2): Unflatten(dim=-1, unflattened_size=(-1, 1))
              )
              (residual_conv): Identity()
            )
            (2): Identity()
          )
        )
        (final_conv): Sequential(
          (0): Conv1dBlock(
            (block): Sequential(
              (0): Conv1d(256, 256, kernel_size=(5,), stride=(1,), padding=(2,))
              (1): GroupNorm(8, 256, eps=1e-05, affine=True)
              (2): Mish()
            )
          )
          (1): Conv1d(256, 7, kernel_size=(1,), stride=(1,))
        )
      )
    )
  )
)

SequenceDataset: loading dataset into memory...
  0%|          | 0/33 [00:00<?, ?it/s]100%|##########| 33/33 [00:00<00:00, 11005.17it/s]
SequenceDataset: loading dataset into memory...
  0%|          | 0/8 [00:00<?, ?it/s]100%|##########| 8/8 [00:00<00:00, 10926.22it/s]

============= Training Dataset =============
SequenceDataset (
…
